…
    Delta Memory :                               16400.00 MB
    Max Swap :                                   -
    Max Processes :                              4
    Max Threads :                                13
    Run time :                                   42 sec.
    Turnaround time :                            48 sec.

The output (if any) follows:

Loading checkpoint: pretrained/recon/reconstruction_model.pth ...
Using skip: <function skip_sum at 0x2af171697a70>
Using UpsampleConvLayer (slow, but no checkerboard artefacts)
Kernel size 5
Skip type sum
norm none
FlowNet(
  (unetflow): UNetFlow(
    (head): ConvLayer(
      (conv2d): Conv2d(5, 32, kernel_size=(5, 5), stride=(1, 1), padding=(2, 2))
    )
    (encoders): ModuleList(
      (0): RecurrentConvLayer(
        (conv): ConvLayer(
          (conv2d): Conv2d(32, 64, kernel_size=(5, 5), stride=(2, 2), padding=(2, 2))
        )
        (recurrent_block): ConvLSTM(
          (Gates): Conv2d(128, 256, kernel_size=(3, 3), stride=(1, 1), padding=(1, 1))
        )
      )
      (1): RecurrentConvLayer(
        (conv): ConvLayer(
          (conv2d): Conv2d(64, 128, kernel_size=(5, 5), stride=(2, 2), padding=(2, 2))
        )
        (recurrent_block): ConvLSTM(
          (Gates): Conv2d(256, 512, kernel_size=(3, 3), stride=(1, 1), padding=(1, 1))
        )
      )
      (2): RecurrentConvLayer(
        (conv): ConvLayer(
          (conv2d): Conv2d(128, 256, kernel_size=(5, 5), stride=(2, 2), padding=(2, 2))
        )
        (recurrent_block): ConvLSTM(
          (Gates): Conv2d(512, 1024, kernel_size=(3, 3), stride=(1, 1), padding=(1, 1))
        )
      )
    )
    (resblocks): ModuleList(
      (0): ResidualBlock(
        (conv1): Conv2d(256, 256, kernel_size=(3, 3), stride=(1, 1), padding=(1, 1))
        (relu): ReLU(inplace=True)
        (conv2): Conv2d(256, 256, kernel_size=(3, 3), stride=(1, 1), padding=(1, 1))
      )
      (1): ResidualBlock(
        (conv1): Conv2d(256, 256, kernel_size=(3, 3), stride=(1, 1), padding=(1, 1))
        (relu): ReLU(inplace=True)
        (conv2): Conv2d(256, 256, kernel_size=(3, 3), stride=(1, 1), padding=(1, 1))
      )
    )
    (decoders): ModuleList(
      (0): UpsampleConvLayer(
        (conv2d): Conv2d(256, 128, kernel_size=(5, 5), stride=(1, 1), padding=(2, 2))
      )
      (1): UpsampleConvLayer(
        (conv2d): Conv2d(128, 64, kernel_size=(5, 5), stride=(1, 1), padding=(2, 2))
      )
      (2): UpsampleConvLayer(
        (conv2d): Conv2d(64, 32, kernel_size=(5, 5), stride=(1, 1), padding=(2, 2))
      )
    )
    (pred): ConvLayer(
      (conv2d): Conv2d(32, 3, kernel_size=(1, 1), stride=(1, 1))
    )
  )
)
Trainable parameters: 0
sensor resolution = [180 240]
Traceback (most recent call last):
  File "/cluster/home/jzhong/miniconda3/envs/event_cnn/lib/python3.7/multiprocessing/queues.py", line 242, in _feed
    send_bytes(obj)
  File "/cluster/home/jzhong/miniconda3/envs/event_cnn/lib/python3.7/multiprocessing/connection.py", line 200, in send_bytes
…
