…
    Max Memory :                                 3440 MB
    Average Memory :                             400.00 MB
    Total Requested Memory :                     20000.00 MB
    Delta Memory :                               16560.00 MB
    Max Swap :                                   -
    Max Processes :                              3
    Max Threads :                                4
    Run time :                                   43 sec.
    Turnaround time :                            63 sec.

The output (if any) follows:

Loading checkpoint: pretrained/firenet/firenet_all_cts.pth ...
FireNet(
  (head): ConvLayer(
    (conv2d): Conv2d(5, 16, kernel_size=(3, 3), stride=(1, 1), padding=(1, 1))
  )
  (G1): ConvGRU(
    (reset_gate): Conv2d(32, 16, kernel_size=(3, 3), stride=(1, 1), padding=(1, 1))
    (update_gate): Conv2d(32, 16, kernel_size=(3, 3), stride=(1, 1), padding=(1, 1))
    (out_gate): Conv2d(32, 16, kernel_size=(3, 3), stride=(1, 1), padding=(1, 1))
  )
  (R1): ResidualBlock(
    (conv1): Conv2d(16, 16, kernel_size=(3, 3), stride=(1, 1), padding=(1, 1))
    (relu): ReLU(inplace=True)
    (conv2): Conv2d(16, 16, kernel_size=(3, 3), stride=(1, 1), padding=(1, 1))
  )
  (G2): ConvGRU(
    (reset_gate): Conv2d(32, 16, kernel_size=(3, 3), stride=(1, 1), padding=(1, 1))
    (update_gate): Conv2d(32, 16, kernel_size=(3, 3), stride=(1, 1), padding=(1, 1))
    (out_gate): Conv2d(32, 16, kernel_size=(3, 3), stride=(1, 1), padding=(1, 1))
  )
  (R2): ResidualBlock(
    (conv1): Conv2d(16, 16, kernel_size=(3, 3), stride=(1, 1), padding=(1, 1))
    (relu): ReLU(inplace=True)
    (conv2): Conv2d(16, 16, kernel_size=(3, 3), stride=(1, 1), padding=(1, 1))
  )
  (pred): ConvLayer(
    (conv2d): Conv2d(16, 1, kernel_size=(1, 1), stride=(1, 1))
  )
)
Trainable parameters: 0
sensor resolution = [180 240]
Saving to: /cluster/scratch/jzhong/event_cnn_recon
  0%|          | 0/723 [00:00<?, ?it/s]  0%|          | 1/723 [00:00<11:31,  1.04it/s]  2%|▏         | 15/723 [00:01<00:37, 18.92it/s]  3%|▎         | 23/723 [00:01<00:24, 28.32it/s]  4%|▍         | 31/723 [00:01<00:18, 36.75it/s]  5%|▌     
…
